models/2dquadrotor/finetune/seed_0.pth (torch, 157762 bytes, 19 tensors)

controller.x_equilibrium f4 [6]
00000000: 0000 0000 0000 0000 0000 0000 0000 0000
00000010: 0000 0000 0000 0000
0.0 0.0 0.0 0.0 0.0 0.0

controller.u_equilibrium f4 [2]
00000000: ac90 1840 ac90 1840
2.38383 2.38383

controller.b f4 [2]
00000000: 8844 d73e 8844 d73e
0.42044473 0.42044473

controller.layers.0.weight f4 [60, 6]
00000000: 43d0 49be e493 a9be 21c7 1dbf 97df 86bf
00000010: 74e9 1bbd faf4 9abd 40e9 dfbd 1d26 b13e
00000020: 9ef3 5cbd 75d5 ccbd 8f3a 873e 8eed 1abf
00000030: b2d0 bb3c fdd4 783e b25b 25bf 9baf 983d
00000040: 7e7f 32bd 47ed 19bd 85e9 d4bc 1db4 443e
00000050: 4ca6 263f 0d9a 373d 564e 013e 9676 493d
00000060: 30ff 323e 4212 b7bc 1fc9 0dbf ea31 153d
00000070: 5536 073d 6d54 9fbc be11 b43d 71f5 11be
00000080: e2c2 29be 3b97 2a3e 4b9e babe 1e91 b33d
00000090: ac52 0c3e a879 44bd d1a6 10bf 5fb9 1b3e
000000a0: 73d7 b93e 1b6c b43d 942b 0ebe 9237 6f3e
000000b0: e73c 173f 6f8d 1fbe b660 933e 5f9a cbbc
000000c0: 2385 863e 2547 88be 644e 9cbe 987d a23e
000000d0: bce0 04be c3bd 32be 091a dabd 6a59 d23e
000000e0: cc6c 05be 0acc c03e 14f2 ef3e 4c56 c9bc
000000f0: 1754 a7be 0d7a febe 03bb 3f3e a46c 9b3e
00000100: d7b8 4ebe 1a8e a33d 71c5 033f 5215 f53b
00000110: 4f0a 023f 1218 b63e 7823 d83e b94c 4bbd
00000120: 8071 a3bd e370 64bd 04fa 8d3e 6eba 22be
00000130: dd07 60bd df05 a0bd a3ef 103e 6534 80be
00000140: 8888 c7be 8a7e 2fbf ef57 0fbe 6461 cebd
00000150: 71dd dfbe 8053 203e b8e4 64be 8e38 8cbe
00000160: 59b7 a1be 8835 c03d fc45 2bbe c6ed b7bd
00000170: 0200 4bbe 952d 873d 6ad5 87be 83c9 d5be
00000180: 7769 bdbe 2e40 e3bd 746d e4bb 3316 d1be
00000190: 6e48 853d 5a2c 813e 44f2 57be 5707 d63e
000001a0: dbd3 04be b2ce dbbe dfed 983e 2a29 313d
000001b0: c6c1 283e 8d7c 0cbe 2676 94be 51e5 fa3d
000001c0: 114c 8dbe 1e5b 32be 008f f93e 5681 843e
000001d0: fc2d 223f ed41 c13d 247f 71bd b40d 07be
000001e0: 3f7c 8a3e 6532 acbc 5fc6 d93e ce89 9b3e
000001f0: e7c0 833d d119 72bd c6fb 3e3e 7627 bf3e
00000200: d145 613e b08f 893d 07a0 093f 9397 2e3d
00000210: ab2d 8abe 7b7e 84bd 3fc2 383f 76c9 65be
00000220: a2c4 9cbd ad0c d9bc 23b1 95be deb0 b93e
00000230: 2561 363f 0546 fcbd 72ca e93d 771a 5ebe
00000240: 231b 9fbe d7f9 a4be c0cf 983e a129 4f3c
00000250: c688 683e 808f 8f3d 6402 ae3e d6e6 56be
00000260: 8b0e e13e 6121 56be d959 ec3e 9a90 c83d
00000270: b83c 84bd ebce a6be 1680 ff3e cbfc 543d
00000280: b19b fbbd b919 d1bd 8241 1fbd ef2c 41be
00000290: d189 33bf 61cb eebd 9347 df3c e351 6f3b
000002a0: b367 b5be a097 883e 3810 19bf e538 1fbe
000002b0: dc16 88bd 6cf3 f4bd 04fb afbe f5d5 c2be
000002c0: 30a1 053f 2d49 8fbe df02 49be 32b6 8a3e
000002d0: f686 22be 501b 0abf 157a 6c3e 1623 90be
000002e0: bbcc c0be c08d b23d eee7 89be 5686 8c3e
000002f0: c474 e8be 97b5 3abe 1471 b03e 5610 8bbd
00000300: f87c 753d d809 a73e 1f34 65be 2092 663e
00000310: 96d9 82be 0495 683e 0cbf a5bd 4a54 da3b
00000320: c372 c73b b610 3a3e a0b7 b1be e73b 633e
00000330: 2d08 03bf 9728 2abe 3742 4fbd 1c11 bbbd
00000340: 5a3c 903e 4d88 c43d a511 903e 427e 663e
00000350: a0fd a03d c140 2f3f cabf 12be 7413 97bc
00000360: dbc0 5bbe f6c7 793e a409 e2bd 6a8f 83be
00000370: bd2a 8d3e 4a6c f73e ad7c e1bd 97d5 283e
00000380: 1e95 0d3f 9c9c 88be 76a1 953e de38 ddbd
00000390: 320e 843e 0072 d7be fb34 0e3f 6fcb 793e
000003a0: fa8d 74be 8db3 a8bd b048 953d d9b2 0dbe
000003b0: 1dae e73e 9832 8fbe c6ef 55be 834e 75bd
000003c0: 228f 653e dfe3 d8bc 3d74 4b3f 2b87 3cbb
000003d0: b0f0 27bc b4f9 693d dfeb 803e 72c2 6f3e
000003e0: 75f9 61be c489 0f3e debc f73e 4a70 ad3e
000003f0: 5b78 3cbe 26e8 8cbe 6b2a 32bf e533 d3bd
-0.19708352 -0.33120644 -0.6163197 -1.0536984 -0.038064435 -0.07566257 -0.10933161 0.3459939
-0.05394327 -0.10001651 0.26411864 -0.6051873 0.022926662 0.24299999 -0.6459304 0.07455369
-0.043578617 -0.0375798 -0.025990257 0.19209333 0.650975 0.04482465 0.12627539 0.049185358
0.17480159 -0.022347573 -0.5538501 0.036424555 0.0330108 -0.019449437 0.087924466 -0.14253785
-0.16578248 0.16659252 -0.36448893 0.08767913 0.13703412 -0.047967583 -0.5650454 0.15207432
0.36297187 0.08809682 -0.13883811 0.23361042 0.59077305 -0.15581296 0.28784722 -0.024853883
0.2627345 -0.2661678 -0.30528557 0.31736445 -0.12976354 -0.17455201 -0.10649497 0.41083843
-0.13029784 0.3765567 0.46864378 -0.024577282 -0.32681343 -0.49702492 0.18723683 0.30356324
-0.20187698 0.07986088 0.51473147 0.007479348 0.5079698 0.3556524 0.4221456 -0.049633715
-0.07980633 -0.05577172 0.2772981 -0.1589143 -0.054695 -0.0781362 0.14153914 -0.25039974
-0.38971353 -0.6855246 -0.13998388 -0.100771695 -0.43723634 0.15656853 -0.22352874 -0.27386898
-0.31585196 0.0938521 -0.16725916 -0.089808986 -0.19824222 0.06600491 -0.2653001 -0.41755304
-0.36994526 -0.11096226 -0.0069710556 -0.4083725 0.065079555 0.2522915 -0.21088511 0.41802475
-0.12971441 -0.42931134 0.2986898 0.043252148 0.16480169 -0.13719387 -0.2899639 0.1225077
-0.27597097 -0.17417571 0.48741913 0.25879925 0.63351417 0.094364025 -0.05895914 -0.13188821
0.27047917 -0.021020124 0.42534158 0.30378574 0.064332776 -0.05910665 0.18650731 0.37334794
0.21999289 0.06716859 0.5375981 0.04262502 -0.26987967 -0.06469437 0.72171396 -0.22440132
-0.07654692 -0.026495302 -0.29236707 0.3626775 0.7124198 -0.12318043 0.114155665 -0.21689783
-0.3107539 -0.32221863 0.29846 0.012644202 0.22708425 0.07009792 0.339862 -0.20986494
0.43956408 -0.2091117 0.46162298 0.097932056 -0.06456894 -0.3257974 0.4990241 0.051998895
-0.12285555 -0.10209984 -0.038880832 -0.18864797 -0.70132166 -0.11659885 0.027255809 0.0036517314
-0.3543068 0.2667818 -0.5979037 -0.15549047 -0.06644985 -0.119604915 -0.34371197 -0.3805386
0.5219908 -0.27985516 -0.19630001 0.2709213 -0.15871796 -0.53947926 0.23093446 -0.28151768
-0.37656197 0.08718443 -0.2693476 0.2744624 -0.45401585 -0.18233334 0.34461272 -0.06790225
0.059933633 0.32624698 -0.22383164 0.2251668 -0.2555663 0.22713095 -0.0809308 0.00666288
0.0060866787 0.18170437 -0.34710407 0.2219082 -0.5118435 -0.16617046 -0.050600257 -0.09134123
0.28171045 0.0959631 0.28138462 0.22509101 0.07860875 0.6845818 -0.14330974 -0.018441893
-0.21460287 0.24392685 -0.11036995 -0.25695354 0.2757167 0.48324805 -0.11010108 0.16487728
0.5530566 -0.26681983 0.29224747 -0.10801862 0.2579208 -0.42079163 0.5554959 0.2439401
-0.23882285 -0.082373716 0.07289255 -0.13837756 0.45250025 -0.27968287 -0.20892248 -0.059889328
0.22417882 -0.026475845 0.7947424 -0.002876709 -0.010250255 0.0571229 0.25179955 0.23414019
-0.22067817 0.14017397 0.48386282 0.33874732 -0.18405287 -0.27520865 -0.69595975 -0.103126325

controller.layers.0.bias f4 [60]
00000000: 1d73 ccbd 1858 e63e 4e3b 3bbf a303 543f
00000010: 2788 963e 09c6 3b3e 2a91 123f 4ee4 373f
00000020: de52 5d3f 6a4c 71be 5996 3b3f d5ef 803e
00000030: 03eb 6a3f 53d8 443e 3bac 253f eba9 b7be
00000040: 40e8 063f 0047 eabe e64e cabe 779e 22bf
00000050: 37c0 203f 0018 ff3e 9953 66bd 6a3e 78bd
00000060: e21d 47bf aff7 e2be 9349 fbbe af89 123f
00000070: 005f 313f a233 83be 899e 30be 8677 aebc
00000080: 4035 64bf c946 293f d6cc adbe bb22 953e
00000090: 39fa 22bd 4db7 81be 7770 b43d ab36 1f3f
000000a0: 4ba8 2abd 664b 163e 430a 58be c896 b03d
000000b0: 2e13 14bf a489 633f 5f7b ba3e 2276 c13e
000000c0: e2b6 0d3f acf2 b33e 2e72 81be e8ec 2e3d
000000d0: 33df f1bd 199a 833e 05c8 0abf b93c 323f
000000e0: da36 b4be bc0d 78be f2d6 20bf 587b 04be
-0.099828936 0.44989085 -0.73137367 0.8281805 0.2940075 0.18337263 0.5725275 0.7183274
0.8645457 -0.23564306 0.7327629 0.25182977 0.9176485 0.19223146 0.6471593 -0.35871825
0.52698135 -0.45757294 -0.3951332 -0.6352305 0.62793297 0.49822998 -0.05623207 -0.060606398
-0.7777997 -0.44329593 -0.4907957 0.5724134 0.69285583 -0.2562533 -0.17247976 -0.021297228
-0.89143753 0.66123635 -0.3394534 0.2912806 -0.039789412 -0.2533516 0.088105135 0.6219279
-0.041664403 0.146772 -0.21097665 0.08622509 -0.57841766 0.888819 0.3642225 0.3778544
0.5535718 0.3514608 -0.25282425 0.0427064 -0.1181015 0.25703505 -0.54211456 0.69623905
-0.35198098 -0.24223989 -0.6282798 -0.12937677

controller.layers.2.weight f4 [60, 60]
00000000: 666c 913e 5a53 c83d da16 44be 6c7e a53e
00000010: 66f1 d1bd acc7 ccbd cc36 bb3c 5d31 853e
00000020: f84b d83b b458 a5bd 8657 ccbc 8aa1 34be
00000030: fd3f 893e 4ed6 83bc e6f5 e53d 5e81 aabd
00000040: a48c b23d bc35 d23d add7 af3c f6df a4bc
00000050: a502 df3c 1669 08bd 0ee9 993e 3f31 3e3e
00000060: a88a 5bbd 4b37 14bd 6097 363e a258 a1bd
00000070: 605c 2a3d 51f1 b73c 71d6 5f3d 3ed6 bdbd
00000080: b34b 5ebe bcdd 24bb 8a78 353d 5e75 47be
00000090: bcc7 4a3d 0d08 5bbd 5797 403e 2828 f43d
000000a0: e91e 653d be3b 7b3c 778d e23c 5c96 41be
000000b0: ae92 0fbe ed67 d23d e214 b8bc 45e6 1e3e
000000c0: cba5 cabd b7f9 723d ba63 b6be 8e57 61bd
000000d0: e3ed 0ebd 89bb d4be 0a14 11be 716a e2bd
000000e0: a724 fabc 488c 24be 3f25 943d 7543 bfbd
000000f0: f6d1 12bd 70fc 32be 5da6 49bd d5dd e1bd
00000100: 4a9a 29be e7d3 463c 0aa1 cabd 66da b43d
00000110: ebfc efbd cc27 ffbd 1a05 e73d 3271 d8bd
00000120: c2b6 81bd f967 ebbd d543 98bd 096f cb3d
00000130: 3514 00be e80e f2bb 7572 663d 2e05 3e3e
00000140: bb4c c6bc eb20 04be de12 f83d 3422 753d
00000150: 0380 203e 1609 8d3d f33e 4b3d b8c4 62be
00000160: 0588 36be 0ec9 133e ffa3 6e3e 261e 60be
00000170: 8c11 8cbd 3c2c 303d d698 d03c 2ae8 8c3c
00000180: 2883 913c ee84 e4bd 82ef 513e c082 6d3c
00000190: 08ca 533d d5e4 123d e4c7 153d fcdd 8c3d
000001a0: c988 71bd ca19 41be 6cfa a7bd 294b 83bb
000001b0: 2bf7 863d 87f8 43be efc8 13be 63d7 5bba
000001c0: 5b9e 35be 02b2 b7be 578d bdbd be32 aebd
000001d0: c24f 4dbe 2ed0 1ebb f20f 0f3d 33e8 f03d
000001e0: d507 d73d 5514 6a3d 52cc 4ebe d525 af3d
000001f0: e293 96be 9708 393d f5f5 7bbe 0010 113e
00000200: 47b9 0abe 6b1f 70be cc16 1fbe 0114 5bbc
00000210: e2c5 a13d 0470 3c3e e1d0 31bd 0c0b ac3d
00000220: fff0 ff3b 541c 5f3d 268c f3bd 4464 5d3e
00000230: d044 813d 64fc a33d 5193 a83e bdae 283e
00000240: 196c 6b3d a045 f9bc 5906 733e ee5a 27bd
00000250: 26a4 89bd e723 343e a7e4 df3d b01a 03be
00000260: 60e4 813c ef8c db3d e739 6f3d 00f4 7dbe
00000270: 3b92 a9bd 42e8 303e 4d21 f4bc 1138 513e
00000280: 7df1 aa3e 9763 a6bd 4c34 8dbd ab6a d4bd
00000290: b452 fc3b 95a1 5c3d a6cc 5cbe c1e1 283e
000002a0: ae41 22bc aaff 5abe e074 c6be ca65 36be
000002b0: 2fcd 24be d8bb a1be a83a 28bd 2731 6b3d
000002c0: 9a03 953d 7ce8 993d 6393 1d3e 0e2f e23c
000002d0: a93a 163e c368 1b3d 4d3f 893e bee3 70be
000002e0: 3b88 163e 0fd7 01be bbb7 a83c 60ef 3bbe
000002f0: 075a 7abe d1ba b3bc 03cb a1bd 29cd 88be
00000300: a988 e8bd 495f 843d e482 b03d e14f 6a3e
00000310: 174c 75be 2f79 393e bb76 8fbc c813 36bd
00000320: ed88 a6be a668 cebd 529e b2bd 5e84 233e
00000330: 9d9b 733e bedf 323d b00e 8d3d 26ea 2a3e
00000340: 9ca7 5abd 3425 df3d f8a5 133e d574 723e
00000350: d5d1 c53d 2e26 b3bd 7e2b 863d b145 393c
00000360: ded1 0f3d 34bf 293e 1909 85be c958 33be
00000370: de8b 64be 505a 4cbd cd19 89bd 146c 8bbd
00000380: 0a6e eb3d 9b96 3abe 54b1 f03d a0e9 fdbb
00000390: 0191 66be 2443 223d 60ef 513e 0c4d 003c
000003a0: 80d1 abbb 6b97 8cbd 3c90 563d 8901 46be
000003b0: 97e7 e33d 6cdd dd3d b52c 023e 3b81 c8bc
000003c0: b632 0fbe b08a 54bd 73f5 973d e45f dcbe
000003d0: e093 4a3e 82d7 723c 0c60 7f3d b82f 5fbe
000003e0: c8bf d6bd f825 2dbb 8107 133a fb4a 193d
000003f0: 7358 6dbe 0bad 67bd 4096 883d 6389 da3c
0.28403014 0.09781523 -0.19149342 0.32323015 -0.10251121 -0.09999022 0.022853278 0.26014224
0.006600853 -0.080735594 -0.024944078 -0.17639747 0.26806632 -0.0160934 0.11228542 -0.08325456
0.08718231 0.10264155 0.021465147 -0.020126324 0.02722294 -0.033303343 0.3006062 0.18573473
-0.05359903 -0.036185544 0.17831182 -0.078782335 0.041592002 0.022453936 0.054647867 -0.09269379
-0.21708564 -0.0025156578 0.044304408 -0.19478366 0.049506888 -0.053474475 0.18807732 0.11921722
0.05593768 0.015334068 0.027655346 -0.18905014 -0.14020798 0.102737285 -0.022470895 0.15517528
-0.09894904 0.059320178 -0.3562296 -0.05501514 -0.034894835 -0.41549328 -0.141678 -0.11055458
-0.030535055 -0.16069138 0.07233667 -0.09339038 -0.035844766 -0.1747911 -0.049230922 -0.11028639
-0.16562763 0.012135482 -0.09893997 0.08830719 -0.11718162 -0.124587625 0.1128027 -0.10568465
-0.063336864 -0.114944406 -0.07434813 0.09933288 -0.12507708 -0.007387031 0.0562615 0.18556663
-0.02420651 -0.12903182 0.12112974 0.05984707 0.15673833 0.06886499 0.04962058 -0.22145355
-0.17825325 0.14432165 0.23304747 -0.218865 -0.06839284 0.043010935 0.025463503 0.017200548
0.017762735 -0.11158167 0.20501521 0.014496505 0.051706344 0.035862762 0.036567584 0.06878278
-0.05896834 -0.18857494 -0.08202061 -0.0040067625 0.06590112 -0.19137774 -0.14432119 -0.0008386282
-0.17736189 -0.35877997 -0.09255474 -0.08505772 -0.20049956 -0.0024232971 0.034927316 0.117630385
0.10499541 0.057148296 -0.2019513 0.08552138 -0.294097 0.045174208 -0.24605544 0.1416626
-0.1354724 -0.23449485 -0.1553604 -0.0133714685 0.07899071 0.18402106 -0.043412093 0.084005445
0.0078107114 0.054470375 -0.118919656 0.2162028 0.06311953 0.08007124 0.32924893 0.16472907
0.057476137 -0.030428708 0.2373289 -0.0408582 -0.06720762 0.1759182 0.10932284 -0.12803149
0.015855968 0.1072024 0.05840483 -0.2480011 -0.082798444 0.172761 -0.029801035 0.20431544
0.33387366 -0.08124464 -0.068947405 -0.10371908 0.0077002887 0.053865034 -0.21562442 0.16492368
-0.009903355 -0.2138659 -0.38761044 -0.17812267 -0.16093896 -0.31588626 -0.041071564 0.057419922
0.072760776 0.07515046 0.15388255 0.027610328 0.14670815 0.037941705 0.26806107 -0.23524377
0.14700405 -0.12679695 0.020595422 -0.18353033 -0.24448405 -0.021939667 -0.079000495 -0.26719025
-0.11354191 0.06463487 0.086187154 0.22882034 -0.23954807 0.18112634 -0.01751267 -0.04445246
-0.3252634 -0.10078554 -0.087216035 0.15968463 0.2378983 0.04367041 0.06887567 0.16690883
-0.0533825 0.10895768 0.14418781 0.2367738 0.09659163 -0.087475166 0.06551264 0.01130812
0.035112254 0.16576844 -0.25983503 -0.17514338 -0.2231898 -0.049890816 -0.06694374 -0.06807724
0.11495598 -0.18221514 0.11752573 -0.0077487975 -0.22516252 0.03961481 0.2050147 0.007830869
-0.00524348 -0.06864818 0.052383646 -0.19336523 0.11128157 0.108332485 0.12712367 -0.024475684
-0.13984188 -0.051890075 0.074198626 -0.4304191 0.19782972 0.014821889 0.062347457 -0.21795547
-0.10485798 -0.0026420336 0.0005608723 0.037425023 -0.23178272 -0.05656151 0.06669283 0.02667684

controller.layers.2.bias f4 [60]
00000000: 8ac3 da3d 1796 18be 7268 3dbe 896f 26be
00000010: 54b1 15be 8531 8bbe 4299 d53e 7d6c 46be
00000020: bd58 72be 724c b23e f078 443d 365e 4b3e
00000030: 7dda b83e d298 823c d34d 29be 4f52 893e
00000040: de79 bf3e 690a 373e 3dab 9a3e 46b8 c63e
00000050: e094 e03d 662c cf3d d816 b23e 6f44 1c3e
00000060: 0fd7 14be 8e25 143e a122 fb3d fe57 113e
00000070: 9674 7b3c 2679 67be bd86 24be 1774 113e
00000080: 9d30 953e f014 63be 8aa0 d73d 9f02 c53e
00000090: dba5 e0be c32a b6be dbe8 06be 546c 573e
000000a0: d253 3dbc 32ed 46bd a8b4 95be acef b83d
000000b0: 3607 93bd 19c6 cbbd 48b0 3d3e 9d42 5b3e
000000c0: aabe d2be b0b6 c9be 1def 993e 1a5d 7e3d
000000d0: a4ca 623d d993 3abd ef4e 553d 1eb1 1b3e
000000e0: e694 8f3c 4887 82be 9b67 933e c703 b9bd
0.10681827 -0.14901005 -0.18496874 -0.16253485 -0.14618427 -0.27186218 0.4171849 -0.19377322
-0.23666663 0.34823948 0.047966897 0.19860157 0.36104193 0.015942011 -0.16533594 0.2682061
0.37397665 0.17875065 0.3020877 0.38812464 0.10965896 0.1011589 0.34783053 0.1526048
-0.14535163 0.14467451 0.12262464 0.14193723 0.0153476205 -0.22604808 -0.16067024 0.14204441
0.29138651 -0.22175956 0.10528667 0.38478562 -0.43876538 -0.355795 -0.13174765 0.21037418
-0.011555629 -0.04856605 -0.29239392 0.09030089 -0.0717911 -0.099498935 0.18524277 0.2141213
-0.4116109 -0.39397192 0.3006524 0.062100507 0.055369034 -0.045551155 0.05207723 0.15204284
0.017527055 -0.25493836 0.28789982 -0.090339236

controller.layers.4.weight f4 [60, 60]
00000000: fd58 393d 183a e23d b553 b6bd a834 7cbe
00000010: ed64 56be 4857 3ebe 0a7b 233d 8484 45be
00000020: 6038 59be 7dbb 0f3e bb89 2f3d d488 513d
00000030: 922a 82bc 459a 913d 9e54 d5be f8d4 b73e
00000040: 9aa1 c3bd 9b58 9d3e 0000 803e 25c1 063f
00000050: 6096 8c3e 12a2 7a3e 03d7 16bd b41e e33d
00000060: c273 c4bc 63dc 113e f196 323d 54f6 c53e
00000070: 2c68 4abd ba5f 033e 9edb 20bb 000c 193e
00000080: 35ae a23e 219d 103e b329 353e 2925 133f
00000090: 8f3f 67be 42e6 96be f47d 8d3e 7b58 903d
000000a0: 4ff4 953e f2e2 0abe 0a0e 03bd 00eb ac3e
000000b0: 2a4d e53c 60f8 2e3a 3c88 83bd 577d cabe
000000c0: 1108 26bb 5c40 143e ed5d 10be 6d3c 7fbc
000000d0: 5e66 2bbc 4908 c83d 34d4 6bbd 0ffb b83d
000000e0: 3cf1 303e 5151 14bf c271 5cbd 3dc1 77be
000000f0: c009 1f3e e686 91bc 5372 4fbd db36 f33b
00000100: 0a2b 4cbd a7f9 06be e9a9 b3bc 1416 70be
00000110: 32db 47bd 123a eb3d 5702 30be 8061 643c
00000120: a202 5abe 5c55 1abe 9743 8bbc adf1 8e3d
00000130: 3cf8 533e d4c2 773c a84f 153e bbce 813e
00000140: 4b55 4fbd 912c 0d3e 454a 3cbe e8c7 843e
00000150: 8876 27bd 4a76 643e 2fec 4e3e 6c21 063e
00000160: 4e40 ab3e 9fb5 afbc 1b6c 9cbd 8d14 6a3d
00000170: c466 253e 0a7e 533d 26bc df3d cd8b 103e
00000180: 285b 42be 8d3c 38be 3cba 213e b3ca 133e
00000190: eb5b f93d 9e1c 053e 33ce 1e3e 2da8 d13d
000001a0: 2643 793d f33d fd3d 559f 2c3e d37a 113e
000001b0: 34e6 4e3d d8b6 d5bc e7c5 e2bd 8aff 37bd
000001c0: f811 9dbd 4765 3bbe 081e 12be 3c5a e53d
000001d0: 66fa 0bbe 581f f1bc 4327 fd3d f3f8 0abe
000001e0: e1dd 12be 4cd7 7c3e 2b5d 0f3e f627 203e
000001f0: 39f8 5dbd 7068 b53d c679 223e 0c63 a13b
00000200: 8eda 743e 4c4a 9dbe 3f07 f43d 28fa 143e
00000210: a27e 0a3e 6785 833e bfd4 acbd f11f b2bd
00000220: b949 74be 4f4e 2bbe ff91 35be d849 143e
00000230: e038 583e ddfd b63d 4aa0 6f3d df4c 14be
00000240: 9931 aabc dbc5 1d3d 824e 36be 242d eebc
00000250: 4afa 1ebe 96c5 773e 9939 063e b008 3fbe
00000260: 5543 2cbe 4231 a7bd 1ea9 84bd ed69 9c3e
00000270: dd00 d43d 31c8 a53e 1dab 8abe 98a2 c23d
00000280: 12a6 ce3d 2423 c43d 4d37 48bd e92a 06be
00000290: f0bc c9bc 7435 21be 1444 543e a177 49be
000002a0: ee69 573e 1187 83bd 0c8a 093c 045d e03d
000002b0: a682 213e 7187 793a bda8 ec3d 5811 00be
000002c0: 279d f1bd 01de b13d 4e63 2ebe 6e2c 983e
000002d0: e148 853e 84a2 4abe 6bb7 8a3e 41dd e13d
000002e0: 56b6 05bf aee5 b23b 3f02 a63d d816 8abd
000002f0: 275f 1cbe f37e 8bbc a4aa 203e feca e1bd
00000300: 9e2c 3c3e d725 1a3e 4f53 03be 086f eebb
00000310: ec82 27bd b7dd 9d3a 401e 2c3d 2962 8a3d
00000320: b20b ffbd 1acc 81be f751 9c3e 6a40 04be
00000330: 5c2c cbbd 294c 963d 4e59 f43d a74c 43be
00000340: 0930 7dbe 5c84 d0bd 4e29 ea3d 8a47 c1bc
00000350: 59e0 a93d 5e5c 0bbe 6380 ea3d a234 f9bc
00000360: 5672 05be 357e 0b3e b4e0 a7be 389c 35bd
00000370: 32d7 4dbd bc08 de3d aa3c 90be a02e 4bbe
00000380: 6610 91bd e155 393d 7d9a e63d b283 fa3c
00000390: 60aa 513d d39a 183e 58c7 4b3d 1462 a2be
000003a0: 8af3 fa3e 7760 9abc c1f2 d23e 0387 273e
000003b0: 3173 a9bd 528d 44be b988 943d eb62 dabb
000003c0: 90f3 95bd 3a44 b6be f8a6 87be 45d8 a43b
000003d0: 864a 3d3e c78b 94bc 8d6f f73e 5db0 923e
000003e0: c16b b6bb 68bd b53d a74b 223e bd0d c7bd
000003f0: fd09 0b3e cf9a 123d afff 44be 5f8f 4c3c
0.04525088 0.11046237 -0.089026846 -0.24629462 -0.20936938 -0.18587983 0.03991226 -0.19288832
-0.21212912 0.14036365 0.04285596 0.05115588 -0.01588944 0.07109503 -0.4166612 0.3590467
-0.095523074 0.30731663 0.25 0.52638465 0.27458477 0.24475887 -0.036826145 0.110898405
-0.023980979 0.14244227 0.04360098 0.38664496 -0.049415752 0.12829486 -0.0024544965 0.14945984
0.31773534 0.1412244 0.17691688 0.57478577 -0.2258284 -0.29472548 0.27635157 0.07048126
0.29287955 -0.13563135 -0.03199581 0.3377304 0.027990896 0.0006674584 -0.06422469 -0.39548752
-0.0025334398 0.14477676 -0.1409833 -0.0155783715 -0.010461418 0.09767205 -0.05757542 0.090322606
0.17279524 -0.5793658 -0.053819425 -0.24194808 0.15531063 -0.01776452 -0.050646137 0.0074223108
-0.049845733 -0.13181172 -0.021931605 -0.23445922 -0.048793025 0.114856854 -0.17188393 0.013939261
-0.21290067 -0.15071625 -0.017000003 0.0697969 0.20700163 0.015122134 0.14581168 0.25353035
-0.05061845 0.13786532 -0.18387707 0.25933766 -0.040884525 0.22310749 0.20207284 0.13098687
0.33447498 -0.021448908 -0.07637807 0.057148505 0.16152483 0.051633872 0.10924558 0.1411583
-0.18980086 -0.17991848 0.15793699 0.14432792 0.12175735 0.12999198 0.15508346 0.10237155
0.060855053 0.123653315 0.16857655 0.1420701 0.050512508 -0.026088163 -0.11072903 -0.044921435
-0.07669443 -0.18300353 -0.14269269 0.111988515 -0.13669738 -0.029433891 0.12361004 -0.13571529
-0.14342453 0.24691504 0.14000385 0.15640244 -0.0541918 0.088578105 0.15866765 0.0049251374
0.23911497 -0.30720747 0.119154446 0.14548552 0.13524869 0.25687715 -0.084390156 -0.086974986
-0.23856248 -0.16729091 -0.17731474 0.14481294 0.21115446 0.08935139 0.058502473 -0.14482449
-0.020775603 0.038518768 -0.17803386 -0.02907426 -0.15525165 0.24196467 0.1310791 -0.18655658
-0.1682256 -0.08163692 -0.06477569 0.30549565 0.10351727 0.32379296 -0.27083674 0.095036685
0.10090269 0.09577015 -0.048880864 -0.13102306 -0.024626225 -0.15743047 0.20729095 -0.19674541
0.21036503 -0.06422246 0.008394729 0.10955241 0.15772495 0.00095187785 0.11555622 -0.12506616
-0.117975526 0.08684922 -0.17030069 0.29721397 0.26032165 -0.19788557 0.27093062 0.11028529
-0.5223135 0.005459509 0.08105897 -0.06742638 -0.15270673 -0.017028308 0.15690094 -0.11025046
0.18376395 0.15053497 -0.12824748 -0.0072764196 -0.04089634 0.0012044226 0.042021036 0.06757004
-0.124534026 -0.2535103 0.30531284 -0.12915197 -0.0992057 0.07338745 0.11931096 -0.1907221
-0.24725355 -0.101814955 0.114336595 -0.023593683 0.08294744 -0.13609454 0.11450269 -0.030420605
-0.13031897 0.13622363 -0.32788622 -0.044338435 -0.050254054 0.1084151 -0.28171283 -0.19842005
-0.07083206 0.045247916 0.11259935 0.030580375 0.051187873 0.14902811 0.049750656 -0.31715453
0.4901393 -0.018844826 0.41200832 0.16360097 -0.08273924 -0.19194534 0.0725264 -0.006664624
-0.073218465 -0.35598928 -0.26494575 0.005030664 0.1848546 -0.018133057 0.48327294 0.2865018
-0.0055670445 0.08874017 0.15849172 -0.09719417 0.13578029 0.03579217 -0.1923816 0.012485354

controller.layers.4.bias f4 [60]
00000000: a64f ad3e 03a6 3a3e 8cc4 95bd 4e2a 5f3e
00000010: 73e4 003e 3361 79bd b3fc 903d 26fc a6bd
00000020: f743 7fbd 758f e8bd 0741 a93e 438e 263e
00000030: 0d1e dfbd 4725 ce3e 4e0a a1bc db8f 403e
00000040: 5d9f 20be 3013 82bd fdc6 293e 8801 06be
00000050: a406 443e 0a6e a13d 56b4 8c3c 0ea1 fd3e
00000060: 71f6 793e 6f0b a0be 1d55 663e 550d 82bd
00000070: 763e 30be c2fb 8a3e 6229 5cbd 7eae 1c3d
00000080: 24b0 e83d 26d8 42be 77bb ecbd 2927 efbd
00000090: c2c4 87be 6f92 0c3e 9839 10be 8f04 f33d
000000a0: f51c d83d ac9e 3d3e fe02 973d c622 e6bd
000000b0: b3b3 74bd 1109 ccbd 098a ca3e b94f 26be
000000c0: c1e7 183e 20f7 a1bd ab66 2bbd c36e 383e
000000d0: 6963 d33d 8107 15be ccec 9cbe 4b1d 4a3e
000000e0: 0f43 82be 126b f73d a249 b53d e806 323e
0.3384983 0.18227391 -0.07312879 0.21793482 0.12587146 -0.060883712 0.070794486 -0.08153562
-0.062320676 -0.11355487 0.33057424 0.16265206 -0.108944036 0.40262815 -0.019658234 0.18804877
-0.15685792 -0.06351316 0.16579814 -0.13086522 0.19143158 0.078823164 0.017175835 0.49536937
0.24410416 -0.31258723 0.22493406 -0.06350199 -0.17211327 0.271452 -0.053750403 0.038252346
0.11361721 -0.19027767 -0.115591936 -0.11677391 -0.26517302 0.13727735 -0.1408447 0.11866104
0.10552398 0.1851756 0.073736176 -0.11237101 -0.059741687 -0.09962667 0.39558437 -0.1624135
0.14932157 -0.079084635 -0.04184596 0.18011002 0.10321695 -0.14553644 -0.30649412 0.19737737
-0.25441787 0.12080969 0.08851935 0.17385447

controller.layers.6.weight f4 [2, 60]
00000000: ed80 aabd edea ec3e 5d3c 04bf 3d6f b2be
00000010: f878 a2be 6d39 e9be 8047 ebbe 46b6 32be
00000020: 9857 e43e 455a 05bf b694 95bc 0eb3 003f
00000030: 41ee bfbe 8f2b aabd 9155 f3be 9431 94bd
00000040: be9b d8be 536d db3e 5794 963e 080f 193f
00000050: 8580 ea3e 7695 cf3e a19a 10bf a65a 413e
00000060: 8f85 27bf 2716 333f e5cd 88bd 6962 7e3e
00000070: 97ec 8abe 3060 94be f32e b6be 455d 83be
00000080: 2bff 973c 7170 db3e e5ef 643e 19fa 0abf
00000090: f274 723e bd14 d23e 3c19 a2be ad77 a23e
000000a0: 65d8 c3be e8e4 573e 87fe 0a3f 6c1c 01bf
000000b0: 5914 053f 4a65 293e cfef 1abe a760 013e
000000c0: dcde b33e 5c00 a2be 5dd1 e7bd b081 56be
000000d0: 67cb 073f d89f a73e fd72 d13e 3ef4 833e
000000e0: d083 bebd cb10 b23e 864f b3be 1dd0 22bf
000000f0: 9568 2c3f ad55 3a3e 90b0 f93d 5471 853e
00000100: 5e88 b8be 079f 30be 15a0 9b3e 8fda aabe
00000110: e0de 893c 53e2 e13e dbb0 d23e 0bb9 a1ba
00000120: 9c21 73be 025e 113f ac32 24be 37db 01bf
00000130: bfa8 3a3c d0ad bf3e ac82 d73e ee73 3cbe
00000140: a28a b6bc 00ca 183d 0988 2c3e 5f7d c33e
00000150: dfe7 5e3e bd67 bebe d54b 303f 800b cc3e
00000160: b35a 6ebe 8d7b c1be 9814 a4be 4134 b8be
00000170: 34c3 a83e 0b3d 37be 78e2 cd3e 3943 323e
00000180: e041 293f fc18 9f3e 0417 c2be 77d6 3c3e
00000190: a381 a3be a020 793e 06da 75be 4487 b4bd
000001a0: 99c7 f23b b8da ef3e 5c04 cb3e eae2 42bf
000001b0: 955b 29bf 9cc3 23bd 60e0 b83e e404 f4be
000001c0: 1027 19bb c1f3 8c3e dee6 15bf e382 45bf
000001d0: 90d0 c1be 0c5a 29bf 8a1b d13e 3870 9ebe
-0.08325372 0.46272984 -0.5165461 -0.34850493 -0.31732917 -0.45551625 -0.45952988 -0.17452344
0.4459808 -0.52090865 -0.018259387 0.50273216 -0.3748646 -0.083090894 -0.4752622 -0.07236019
-0.42306322 0.42856845 0.2941005 0.5978856 0.45801178 0.40543717 -0.56485945 0.18882236
-0.6543817 0.69955677 -0.06679896 0.24842228 -0.2713363 -0.28979635 -0.35582694 -0.25657097
0.01855429 0.42859223 0.22357138 -0.5428787 0.23677424 0.41031447 -0.31659877 0.3173193
-0.38251033 0.21083415 0.5429463 -0.50433993 0.51984173 0.16542545 -0.15130542 0.12634526
0.35130966 -0.316409 -0.1131923 -0.2094791 0.5304474 0.3273914 0.40908042 0.2577228
-0.09302485 0.34778437 -0.3502161 -0.63598806 0.6734708 0.18196745 0.1219188 0.26063025
-0.3604154 -0.17248164 0.3039557 -0.33369872 0.016829908 0.44117984 0.41150555 -0.0012338472
-0.2374329 0.5678407 -0.16034955 -0.5072512 0.011392771 0.37437296 0.42091882 -0.18403599
-0.022282902 0.037302017 0.16848768 0.38181588 0.2176814 -0.3718852 0.6886571 0.39852524
-0.23276787 -0.37789574 -0.32046962 -0.35977367 0.32961428 -0.1789438 0.40211844 0.17408456
0.6611614 0.3107375 -0.37908185 0.18441187 -0.31934842 0.24328852 -0.2400895 -0.08814862
0.007409048 0.46846557 0.39651763 -0.76127493 -0.6615537 -0.03998147 0.36108685 -0.4765998
-0.002336923 0.2752972 -0.585554 -0.7715284 -0.37854433 -0.66153026 0.40841323 -0.3094499

controller.layers.6.bias f4 [2]
00000000: 6e24 84b9 f3d0 eabd
-0.00025204144 -0.11465635

lyapunov.layers.0.weight f4 [120, 6]
00000000: c3b7 083e 9d39 4e3e 783a 93be 23bc 7b3d
00000010: e3c9 373e 221a 38bb a4f0 793e 2b8d 473e
00000020: 491a 6b3c 4e0d b23e f9ad 653e 91dd 363d
00000030: 7948 923e 9249 07be 3228 ca3e 65f9 033d
00000040: 46bb 14bd 033f ee3c f4a2 783e 4d7a 8fbe
00000050: 4a60 18bf 7b78 d7bd 1f92 b63d 5a23 23bd
00000060: af12 b0bd 4834 95bd 078d 563e b56d afbe
00000070: 16c9 793d b2c7 30bd b127 8e3d aa8a 543d
00000080: a780 95bc ec78 78bd 530a e9bd 65d0 eabc
00000090: a96d f3bd 5e40 103d e627 20bf 6c7b 403e
000000a0: e873 fc3d 7f0a a5bd 8c72 a3be 3382 22bb
000000b0: 7eaf b5bd dc8f 22be 836d a3bd 08f9 5ebc
000000c0: 8a8e 0f3e 5c80 12be 5d8d d3be 1217 c03e
000000d0: 24ef 78be c05f cd3b 3679 3c3c ddea f63d
000000e0: 3d71 12be eb3d 07bd e4a0 00be fa69 bb3c
000000f0: abb2 7dbc 7618 103d 6188 a0be d3f9 9ebd
00000100: d3cc 87bd b787 60bc 1497 26bc 07e8 bbb8
00000110: f5d9 a7be 1c5c 38bd b3b2 a3be 2201 b13c
00000120: fcab a33d e550 3bbe 8e4a 033e b8ee 7abe
00000130: f419 1abe b1d9 1e3d 06d7 d1bd 07d0 7b3d
00000140: 7029 6d3e 2ee2 853d e8f3 abbd ad88 d2bb
00000150: c7e0 7d3d 22fb abbe f3c4 fc3e acde ebbc
00000160: 7bba ab3d ff05 e13c 8526 40be 73f0 58bd
00000170: 1c43 a43e d579 3dbd 55b5 c33c e4f8 0f3d
00000180: 6bfb c33e 328b 02be 93c3 2fbe aada 943e
00000190: 30da 263e 987e 49bd f09e cd3d a706 bcbe
000001a0: 6e9b 0d3e bcff a33d 1f70 9cbe 4098 cc3c
000001b0: a3b6 523d 8a55 413d 99b9 d53d f9a8 33bd
000001c0: b428 f53d eaa1 40bc c9da 52be ea87 373c
000001d0: 62a1 343e 34ed a1bd 14f9 463e 5971 7cbd
000001e0: 9e68 00be 0053 eb3c 6a6e 1f3e 5d18 e3bd
000001f0: 245c 293b f033 df3d bfef e73d ffa3 a7bd
00000200: e20c da3d fc9e a93d b2f6 25be bde0 99bd
00000210: f22a eb3e e069 14be c306 24bf a935 853e
00000220: 5d1a d3bd e625 e0ba 0acd 923e 7252 83bc
00000230: fb38 96be 00d3 283d ef35 0f3d 391b 37bd
00000240: e997 4ebe ba06 51be 3586 343e b369 4c3e
00000250: 7afc bbba 2f4f 273d 840c 2e3e 458c 27be
00000260: 0842 613e a120 72be 3ef8 09be c3f4 843d
00000270: 47f4 69bd a057 033e 4540 5e3e 82f6 723c
00000280: c3a3 753e 16b1 bd3c 9372 393e 8c71 813e
00000290: eac1 973e 2c78 613e 1e24 903e 2dd7 233d
000002a0: 00f0 393f 24d6 b0bd 94d6 94bd fa59 813e
000002b0: ad24 b0be 64d6 c6bc 2309 d43e 87f6 e1bd
000002c0: d3ab d8bc ff7a 3e3e e1d8 41bd 18b7 713c
000002d0: e976 40bc 73ae bf3c f94b 63be d7cc 953c
000002e0: 75c3 07be e88a f2bc 7720 adbe 65f0 683d
000002f0: a826 84bc bb7a fdbd e60a 74bc bd76 7c3c
00000300: d929 9a3d 355d 6e3a 67f0 e9bd b12f a03d
00000310: d837 143c 434f adbd e048 df3d 82a8 56bd
00000320: b224 67be 0e41 2b3d e1f2 113d 05fe 573d
00000330: fd30 dbbd 8600 bebc 9afe cd3c 028e 07be
00000340: 864b f93d cbc1 423d 1dfd bdbe 8ef0 673e
00000350: 2171 02bf ab3c c6be e0bc 3f3e abf8 cdbc
00000360: f3d4 8ebe 0f84 f43d f1e4 213e 85fa 3ebe
00000370: 434d 263e 32e6 a43c 8b17 383e a0c3 3f3e
00000380: eb01 a13e 4c15 a3be ca98 0abe 5b87 893d
00000390: ade4 90be 1547 d23e b7c3 083d 4e35 22be
000003a0: a70c 723e f426 6c3c e0bb 8c3d f487 143e
000003b0: 4be2 603d 3fa6 e2bd b2f1 4b3e 8c46 483d
000003c0: 9b93 933d 2430 9abe 4a4f b7bd 2a3c 263e
000003d0: 2b12 c73b 0563 32bd da43 9fbe 631a 94be
000003e0: 2c68 bebe c05e d9be 91f3 833d 62d7 acbb
000003f0: 8fb7 83bd 5579 aabe c773 123f b727 6cbe
0.1335135 0.20139165 -0.28755546 0.061458718 0.17948107 -0.0028091748 0.24408203 0.19487445
0.014349529 0.34775776 0.22429647 0.044644896 0.28570917 -0.13211659 0.39483792 0.032220263
-0.03631141 0.02908278 0.24280912 -0.28022996 -0.59521925 -0.10521027 0.08914589 -0.039828636
-0.085973136 -0.072853625 0.20952235 -0.34263387 0.060982786 -0.043159194 0.06941164 0.051890053
-0.018249823 -0.060662195 -0.11378922 -0.028663823 -0.118861504 0.035217635 -0.6256088 0.18797082
0.12326795 -0.080586426 -0.3192333 -0.0024796843 -0.08871363 -0.1587519 -0.07979872 -0.013609178
0.14019218 -0.14306778 -0.4131879 0.375176 -0.24309975 0.006267518 0.011503508 0.12056515
-0.1430101 -0.033018034 -0.12561375 0.022877682 -0.015484492 0.035179578 -0.3135405 -0.07762494
-0.06630864 -0.013704232 -0.010167856 -8.960073e-05 -0.32783476 -0.045009717 -0.31972274 0.021606985
0.07991788 -0.18292578 0.12821409 -0.24505126 -0.15048963 0.038781825 -0.102460906 0.061477687
0.23160338 0.06537281 -0.08396131 -0.0064249844 0.061981943 -0.33590037 0.4936901 -0.028792702
0.08385178 0.02746868 -0.18764694 -0.052963685 0.3208245 -0.046258766 0.023890177 0.03514947
0.38277754 -0.12748411 -0.1716445 0.29073077 0.1629417 -0.049192995 0.100400805 -0.36723825
0.13828823 0.08007762 -0.30554292 0.024974942 0.051443707 0.047200717 0.104357906 -0.043862317
0.11970654 -0.011757353 -0.20591272 0.011201838 0.17639688 -0.07906571 0.19430953 -0.061631534
-0.12539908 0.0287261 0.15569463 -0.11088631 0.0025842274 0.10898578 0.11325025 -0.08185577
0.106469885 0.08282277 -0.16207388 -0.075135686 0.45931202 -0.14493513 -0.6407282 0.26017502
-0.10307763 -0.0017101138 0.28672057 -0.016030524 -0.29340348 0.04121685 0.034963544 -0.044703696
-0.20175137 -0.20412722 0.17629321 0.19962196 -0.0014342212 0.040847 0.16996962 -0.16362102
0.21997845 -0.2364526 -0.13473603 0.06491997 -0.057117727 0.12826395 0.21704204 0.01482928
0.23988251 0.02315573 0.18110113 0.25281942 0.29640132 0.22018498 0.28152555 0.04000013
0.72631836 -0.08634594 -0.0726749 0.2526396 -0.3440298 -0.024272151 0.4141322 -0.110333495
-0.02644912 0.18601607 -0.047325972 0.014753126 -0.0117471 0.023398614 -0.2219695 0.018286152
-0.13258155 -0.029607251 -0.3381383 0.056869883 -0.016131714 -0.123769246 -0.0148951765 0.015409169
0.07527513 0.00090928684 -0.11422806 0.078215964 0.009046517 -0.084623836 0.10902572 -0.052406795
-0.22572592 0.041810088 0.035632018 0.052732486 -0.10702703 -0.023193609 0.025145818 -0.13237765
0.12172608 0.047548097 -0.37107173 0.22650358 -0.5095387 -0.3871816 0.18724394 -0.025142988
-0.27896842 0.11939251 0.1580999 -0.18650253 0.1624041 0.020129297 0.17977731 0.18726969
0.31446776 -0.31852186 -0.13534847 0.0671527 -0.28299466 0.41069856 0.033389773 -0.15840647
0.23637639 0.014413584 0.06871772 0.14504987 0.05490331 -0.11066865 0.19916418 0.048895404
0.07205888 -0.30114853 -0.0895067 0.16233888 0.006075164 -0.043551464 -0.31106454 -0.2892638
-0.37188852 -0.424551 0.06442941 -0.005274699 -0.064314954 -0.33295694 0.5720791 -0.23062025

lyapunov.layers.0.bias f4 [120]
00000000: af46 173f b4fa 453e 0376 383f d3fa 533e
00000010: fbe7 c43e 9af8 223f f796 3abd 060f 1e3f
00000020: 02d2 a43e 5ce1 debe 6378 70bf 77eb ea3d
00000030: a86c dcbe ea46 e3be 80a0 bd3e ee0b f1be
00000040: 81de 59be 655f 103f 7ce7 3ebf bdbf 173e
00000050: c075 b43e f172 0cbe a43e 20bd 9d00 dfbe
00000060: 76c5 a23c 7ed3 2b3e 051b f2be 8d7b c33e
00000070: 4ca5 943e 5b27 0b3f 8cfc 3cbf 1a0e 2fbf
00000080: f489 bcbe 6c13 bebe 9cf2 10bf c5b4 eabd
00000090: 117e 333f 45b8 9f3d ce40 09bf bb30 033f
000000a0: 051c e7be f3f8 90be b785 d13e 175d a93e
000000b0: c07b 12bf 3a06 d0be 0285 31bf ee10 943e
000000c0: 58d9 c5bd 2af9 14be 7c9b 9b3e 0304 f43d
000000d0: ce96 543e 9f72 27bf c3a2 80be e0ed 1fbf
000000e0: 6459 373f aef5 8f3e 08a1 f83e e6de ff3e
000000f0: 2a76 acbd 708d 133f ba4a b43e 7041 c33e
00000100: a467 1f3e 4f52 93be 5234 0c3f 3db2 c53d
00000110: 3380 033f d4b6 e13e 4f78 da3e eeaa 24bf
00000120: c964 a43d d242 02bf 1b94 fd3c edbd 213f
00000130: 812e a5be 8922 ffbe 3c03 163f 28a6 883e
00000140: 0709 893e 422a 23bf e540 563f 0cef 2abf
00000150: 36d7 453f fdb9 45bf 1695 8abe 2735 293f
00000160: 832a e63e 7eea 223f 3857 c73e a677 2abf
00000170: 1ef3 dbbd e2ea e33e 92b5 f03e 6a10 dc3e
00000180: a8d4 023f 2361 abbe cc02 d43e 0ff6 fe3e
00000190: db6f 5f3e 6280 1c3e fff7 1dbf 5584 1abf
000001a0: 5a3d 333f f695 313f f172 dcbe 4af0 f83e
000001b0: 9c05 94be f287 fb3e fc12 13be 7846 393f
000001c0: 47d4 923d c58d e0be c906 e23c 03b8 603e
000001d0: 1e84 cdbe 1443 d6be b22f 3a3f 697f f83e
0.5909223 0.19333917 0.7205507 0.2070115 0.38458237 0.63660586 -0.045554128 0.61741674
0.32191473 -0.4353131 -0.93933696 0.114706926 -0.43051648 -0.4439004 0.37036514 -0.47079414
-0.21276285 0.5639556 -0.7457197 0.14819236 0.35246086 -0.13715722 -0.03912224 -0.43555155
0.019869547 0.16779897 -0.4728624 0.381802 0.29032362 0.54356927 -0.73822856 -0.6838089
-0.36824 -0.37124193 -0.5662019 -0.1146026 0.7011424 0.077988185 -0.5361451 0.5124623
-0.45138565 -0.28314933 0.4092233 0.33078834 -0.5722008 -0.4062975 -0.6934358 0.28919166
-0.09660596 -0.14548174 0.30392063 0.11914828 0.20760652 -0.6540927 -0.25124177 -0.62472343
0.71620774 0.28117126 0.48560357 0.49974746 -0.084209755 0.5763769 0.35213262 0.38135862
0.1556688 -0.28773734 0.54767334 0.09653137 0.5136749 0.440848 0.42669913 -0.6432332
0.08027036 -0.5088321 0.030954411 0.6318043 -0.32262042 -0.49831036 0.58598685 0.26689267
0.267647 -0.63736355 0.8369277 -0.66771007 0.7728151 -0.7723692 -0.2706687 0.6609673
0.4495431 0.63639057 0.3893373 -0.6658882 -0.1073973 0.4451514 0.47013527 0.42981273
0.5110574 -0.33472547 0.41408384 0.49797103 0.21820013 0.15283349 -0.61706537 -0.6035817
0.7001549 0.6936945 -0.43056443 0.48620826 -0.2891053 0.49127156 -0.1436271 0.7237315
0.07169395 -0.43858162 0.027591126 0.21945195 -0.4013986 -0.41848052 0.7272903 0.48534706

lyapunov.layers.2.weight f4 [120, 120]
00000000: 4170 373b f6d8 ff3c b4d3 bc3e 8626 12bd
00000010: a9b8 503c 2af2 803d 1941 10bd 1792 fabb
00000020: 4c4f 333d e6e3 a6bc 3c80 40bd 5b87 9b3d
00000030: a2d0 163d caaf 80bd d8f5 a53d 24cd 4c3d
00000040: 36fd 923c 2f2f 7a3c f495 88bd 0625 1c3c
00000050: 4320 573d 20f6 2fbb 52eb 86bd 2d8a 75bd
00000060: d141 493d 6ab4 bd3d ef7b 5cbd d741 073b
00000070: d957 5a3c 14a1 5c3e 298d 7ebc 3de3 f2bd
00000080: fb8d 9d3a 87e8 013d 77db 3d3b 244d 173c
00000090: c23f 4e3e 92fa f6bc 55de 8dbd 122d b23c
000000a0: 372b d53c 750f 27bd 46ab 5b3e f081 233d
000000b0: 85be 03bd ea06 7f3c 9474 5bbd 9d95 013d
000000c0: 7322 51bd 0076 2b3a e2e3 523d 18ac 513c
000000d0: d832 20bd e760 253e e1fd 9c3d 97e4 063d
000000e0: fae2 0bbb 8334 45bd 7b4e 4bbd 45fe b93c
000000f0: 200d 00ba d95a a03d 9270 5fbd 717e bd3d
00000100: 3f9e 993d 41fe 10bd d45b 8d3c 4b4d 013d
00000110: 0f32 083e ff76 193d 699f cb3c 3c16 5dbe
00000120: 5e71 f43c 015e adbd e196 1ebc 1cc8 5a3d
00000130: e8b3 c83c 946c 24bc 3fc3 f53d 47b2 793c
00000140: 2146 b1bb 293c 20be e15c 383c bee9 a1bc
00000150: 5bae 2bbc f9c4 e73d 2619 ad3c 4e0b df3d
00000160: dc8b b03c 8dcb ac3d a04f 233c f60a 5bbd
00000170: 3e44 75bd f898 213d ca23 713d 180d 173e
00000180: c70a 08bd 777b c13b 8866 98bd 0ff9 023e
00000190: 37ef 77bb 511b e4bc b7b0 d7bd f994 b4bd
000001a0: 068b 8b3e af02 aabc cc04 1cbe 2d1a 19bd
000001b0: a11d 23bd 98c7 9c3c 2636 953c 1696 c43d
000001c0: 37a5 de3d 4fdd e2bb ddde d2bc e18d 8f3c
000001d0: 4dfb fabd a8c7 8fbc 1559 953e c7f6 593c
000001e0: d7e2 29bc fdf6 a43b 1c12 70bd 211a 78bc
000001f0: 5580 e53c b562 1bbd c517 a63d d6e1 27bd
00000200: 9749 f83c 8939 31bd 5c59 6ebd c896 50bd
00000210: f612 eb3c b4d0 e3bc 314b be3d 90d3 103d
00000220: a053 483d d234 02bd b47c a43d b694 853d
00000230: 6e6f b03b 6199 5c3d 7617 02bd 02ce 973c
00000240: 3e4c ab3d 61ee 0d3d cbb9 e23d 8336 ffbb
00000250: cde3 113c 9c22 7c3d 6c33 353d 6c1c cdbc
00000260: 5177 ad3d dfb1 a73d eb88 a7bc f493 2bbd
00000270: 2523 653d 7716 81bd 37b9 88bd ff8b 13bd
00000280: 2d79 4e3c 56ef 063e 7185 863d 570b 9abd
00000290: 1cfb 703d 7c83 b43b 8ae8 89bd 768f 21bc
000002a0: 72e9 1c3d 3332 45bd d57d bbbc 3ca1 6bbd
000002b0: 3638 0c3d 97cc 2a3e 15b6 1f3d 2941 ae3c
000002c0: 38c9 c9bd a3bf 803d 029a 563d 79fb 03bd
000002d0: 21d4 c23d 31de e5bc bd4e f03c ccb9 a13b
000002e0: 3180 3ebc 5890 763d ba97 94bc 69aa 24ba
000002f0: 7cd8 193d 1585 55bd 68c7 42bd ec1c 20bd
00000300: 3b85 01bd 6e66 2d3e ebd2 5dbd 01ae 483d
00000310: 92ce 803d c174 d23b 200d 403d e6b3 41b8
00000320: 0277 e1bc e71f 1dbe 951e 05be 610a a73d
00000330: b5f4 c6bd 63b1 b8bc 408c 983b 318f b2bd
00000340: ddc7 b2bd 034d e6bd 16f2 23bd 5f02 2cbd
00000350: 7baa 913c 2295 dabb ca03 8d3c 41a9 263a
00000360: 6cfe 53bc 7d5d 4e3b 093a 6cbc d222 b2bb
00000370: 5902 8f3d d090 f3bb e6dd 523d 6b0c b83d
00000380: d017 08be 9511 943c 5276 5c3d 3851 d0bd
00000390: b47d fb3c 7f09 e7bb f917 a83c 514f 0cbe
000003a0: d7a2 953c d222 173c cc3b 063c 71aa 8c3c
000003b0: bfcd 51bc c072 cb3d 7063 a03d 632a babb
000003c0: 41ab 463e cdeb e3bd 00a1 c53d a75d 93bd
000003d0: 5535 d43d ab9a 843d db85 06bd 1fb3 1c3e
000003e0: 0cd5 9bbc 66ab f7bc 45ee b7be 1b9e 26bd
000003f0: 8075 30be 84d2 2abd 060b 80bd 8809 c23d
0.0027990493 0.031231385 0.36880267 -0.03568127 0.012739339 0.06296189 -0.035218332 -0.00764681
0.043776795 -0.020372342 -0.046997294 0.075941764 0.03682006 -0.06283529 0.081035316 0.050000325
0.017943006 0.0152700385 -0.06669226 0.009530311 0.052521 -0.0026849583 -0.065878525 -0.059946228
0.049135033 0.09262927 -0.05382913 0.002063861 0.013326609 0.21545821 -0.015536585 -0.118597485
0.0012020463 0.031715896 0.0028969923 0.0092347 0.20141509 -0.030148778 -0.06927172 0.021750007
0.026021583 -0.040786225 0.21452054 0.03991884 -0.032164115 0.015565613 -0.053577974 0.031636823
-0.051058244 0.00065407157 0.051486857 0.012797378 -0.03911099 0.16150247 0.07665611 0.032932844
-0.0021345005 -0.048145782 -0.04963539 0.022704253 -0.0004884768 0.07829828 -0.054550715 0.092526324
0.07500886 -0.035398725 0.017255701 0.031567853 0.13300346 0.037467 0.024856286 -0.21590513
0.029839214 -0.084651954 -0.009679527 0.053413495 0.024499848 -0.010035653 0.12000131 0.015240259
-0.0054099713 -0.1564795 0.011252613 -0.019764777 -0.010478581 0.113168664 0.021130156 0.10890828
0.021551065 0.08437262 0.009967715 -0.05347725 -0.059879534 0.039452523 0.05887202 0.14751089
-0.033213403 0.0059046107 -0.07441431 0.12790321 -0.0037831792 -0.027845057 -0.105317526 -0.08817477
0.27254504 -0.020753233 -0.15236205 -0.03737848 -0.03982318 0.019138142 0.018214297 0.09598939
0.10871356 -0.0069233547 -0.025741035 0.017523708 -0.12254963 -0.017551258 0.29169527 0.013303465
-0.010369024 0.005034326 -0.05861102 -0.015142948 0.028015295 -0.03793593 0.081100024 -0.04098686
0.030308528 -0.04326776 -0.05819069 -0.050925046 0.028695565 -0.027809478 0.092916854 0.03535801
0.048907876 -0.031788655 0.08031598 0.06522505 0.005384377 0.05385721 -0.031760655 0.01853085
0.083641514 0.034651164 0.110705934 -0.0077884807 0.00890441 0.061556444 0.044238493 -0.025037967
0.084700234 0.08188223 -0.02045103 -0.041889146 0.05594172 -0.06303113 -0.06675952 -0.036022183
0.012602133 0.13177237 0.06568421 -0.07521694 0.058833227 0.005508838 -0.067338064 -0.009860864
0.03830857 -0.048143577 -0.02288715 -0.057526812 0.034233294 0.16679607 0.038992006 0.021271305
-0.098528326 0.06286552 0.052392967 -0.032222245 0.09513117 -0.02806005 0.02933442 0.004935479
-0.011627243 0.06019625 -0.018138755 -0.00062814966 0.03755997 -0.05212887 -0.04755345 -0.039090082
-0.0316212 0.16933605 -0.054156225 0.048994068 0.062894 0.0064226096 0.046887517 -4.618233e-05
-0.027522568 -0.15344201 -0.12999947 0.081562765 -0.09714643 -0.022545522 0.004655391 -0.08718718
-0.08729527 -0.112451576 -0.040025793 -0.04199445 0.017781487 -0.00667061 0.01721372 0.0006357618
-0.012939077 0.0031488829 -0.014418134 -0.00543628 0.0698287 -0.0074330345 0.05148115 0.089867435
-0.13290334 0.01807479 0.053823777 -0.10171741 0.030699588 -0.0070506926 0.020519244 -0.13702132
0.018266125 0.00922461 0.008192968 0.017171117 -0.012805401 0.09933996 0.07831466 -0.0056813224
0.19401266 -0.1112896 0.09649849 -0.07195597 0.10361735 0.06474813 -0.0328425 0.15302704
-0.019022487 -0.030233096 -0.35923973 -0.040678125 -0.17232323 -0.04170467 -0.062521026 0.09474474

lyapunov.layers.2.bias f4 [120]
00000000: 587b 783d 6bda 853e b5c6 b13e ccba 363e
00000010: ff0b b23e c002 8e3e 2f7d 43be 7716 c8bd
00000020: 3bac b43e 8215 563e 0afb 353e 91e5 5bbe
00000030: 4a78 ce3d 3437 553e f3ab 433c 5540 13bd
00000040: 2a8e 68bd f4e9 f53a 0c38 1fbe 9685 a7be
00000050: f3fb dd3c 39e5 e8bd f798 3d3e 83b8 c6be
00000060: d548 523d fd5f c0bd 9477 0a3e 47cc 323e
00000070: b5e6 7f3e 77bc b4be aeeb c23e 9364 5f3e
00000080: 9a06 583e 5919 11bd 4017 16be f5e0 623e
00000090: a819 29bc 705a 053e 56ac 773d 3bfc 6e3d
000000a0: a576 af3e 5b62 8bbe 049a 06be 5ac0 89bc
000000b0: 0ba2 02be c24f 19bc 2940 4a3e 5160 653d
000000c0: ce46 5ebe ac50 6ebe 4aaa 86be 96b0 fd3d
000000d0: f3ea 153e 2a55 8e3d 4ea2 b6bd 1730 d73e
000000e0: 3726 59be d546 2b3e d73a 623e 979d 8f3e
000000f0: 4b81 99be 374f 5dbe a34d 943d dfa3 3bbe
00000100: 83bc 333e 0d9d 643e ad59 04be e6c2 40be
00000110: 1af1 073d a36f 2abe ce1f b0be 41b5 cabe
00000120: b356 9e3e 6a84 03be f8a4 9fbc 523b 1e3e
00000130: 7e67 40be b351 95be 5785 a23e 2d82 31be
00000140: 3748 6bbe c550 b73e dc86 91bd 9d65 a53e
00000150: 039d b93c f8c4 73be f941 04be 2946 1b3e
00000160: 5724 1dbe a6bb 5b3e 04ca 793e 88e0 8cbe
00000170: 472f 6cbe 99f4 d23e 9e38 cbbe 73e6 0b3e
00000180: 3b5e 3c3e 2e7e 73bd f93e 003c 32d6 8fbd
00000190: d465 87be 5435 37be 5536 123e 8b18 23be
000001a0: c7d3 7c3e c82c a93e bfee 59bd 44f4 54be
000001b0: 3c30 973e 5a33 b23e 5c64 3cbe f3b8 98be
000001c0: 7b8c a5be da7e 673e e562 86be c9f2 033e
000001d0: 95d3 27be 0507 4dbe 05dc 99be 1b77 683e
0.060664505 0.26143202 0.34721914 0.17844695 0.34774777 0.27736473 -0.19090723 -0.0976991
0.3528765 0.20906642 0.17771545 -0.21474291 0.10081537 0.2082184 0.011942851 -0.035950024
-0.056776203 0.001876174 -0.15548724 -0.32719105 0.027097678 -0.11371846 0.18515383 -0.38812646
0.05133899 -0.09393308 0.13522178 0.17460738 0.24990351 -0.35300037 0.38070434 0.2181571
0.21096268 -0.035424564 -0.14657307 0.22156127 -0.010321058 0.1302278 0.060467087 0.058346014
0.34270206 -0.27223477 -0.1314469 -0.016815353 -0.12757127 -0.009357395 0.19751038 0.056000058
-0.21706697 -0.23272961 -0.26301795 0.12387197 0.14640407 0.069498375 -0.08917676 0.42028877
-0.21205984 0.16726239 0.22092758 0.2804992 -0.29981455 -0.2161225 0.072413705 -0.1832423
0.1755238 0.22325535 -0.12924834 -0.18824348 0.033188917 -0.16644149 -0.34399265 -0.3959141
0.3092552 -0.1284348 -0.019487843 0.15452316 -0.18789479 -0.29163894 0.31742355 -0.17334814
-0.22976767 0.3580381 -0.071058005 0.32304087 0.022657877 -0.23805606 -0.12915792 0.15163483
-0.15345894 0.21458301 0.24393469 -0.27515054 -0.2306491 0.41202238 -0.39691633 0.13662128
0.18395321 -0.059446506 0.007827514 -0.070232764 -0.26444876 -0.17891437 0.14278539 -0.15927331
0.24690162 0.33041978 -0.0532062 -0.20796305 0.29528987 0.34804803 -0.18397659 -0.29828605
-0.3233374 0.22606984 -0.26247326 0.12885584 -0.16389306 -0.20022209 -0.30050674 0.22701685
